…
I0515 15:44:30.415835 11106 net.cpp:313] The NetState phase (1) differed from the phase (0) specified by a rule in layer data
I0515 15:44:30.416131 11106 net.cpp:49] Initializing net from parameters: 
name: "AlexNet"
state {
  phase: TEST
}
layer {
  name: "data"
  type: "Data"
  top: "data"
  top: "label"
  include {
    phase: TEST
  }
  transform_param {
    mirror: false
    crop_size: 227
    mean_file: "/home/intel/Downloads/caffe/data/ilsvrc12/imagenet_mean.binaryproto"
  }
  data_param {
    source: "/home/intel/Downloads/caffe/examples/imagenet/ilsvrc12_val_lmdb"
    batch_size: 50
    backend: LMDB
  }
}
layer {
  name: "conv1"
  type: "Convolution"
  bottom: "data"
  top: "conv1"
  param {
    lr_mult: 1
    decay_mult: 1
  }
  param {
    lr_mult: 2
    decay_mult: 0
  }
  convolution_param {
    num_output: 96
    kernel_size: 11
    stride: 4
    weight_filler {
      type: "gaussian"
      std: 0.01
    }
    bias_filler {
      type: "constant"
      value: 0
    }
  }
}
layer {
  name: "relu1"
  type: "ReLU"
  bottom: "conv1"
  top: "conv1"
}
layer {
  name: "norm1"
  type: "LRN"
  bottom: "conv1"
  top: "norm1"
  lrn_param {
    local_size: 5
    alpha: 0.0001
    beta: 0.75
  }
}
layer {
  name: "pool1"
  type: "Pooling"
  bottom: "norm1"
  top: "pool1"
  pooling_param {
    pool: MAX
    kernel_size: 3
    stride: 2
  }
}
layer {
  name: "conv2"
  type: "Convolution"
  bottom: "pool1"
  top: "conv2"
  param {
    lr_mult: 1
    decay_mult: 1
  }
  param {
    lr_mult: 2
    decay_mult: 0
  }
  convolution_param {
    num_output: 256
    pad: 2
    kernel_size: 5
    group: 2
    weight_filler {
      type: "gaussian"
      std: 0.01
    }
    bias_filler {
      type: "constant"
      value: 0.1
    }
  }
}
layer {
  name: "relu2"
  type: "ReLU"
  bottom: "conv2"
  top: "conv2"
}
layer {
  name: "norm2"
  type: "LRN"
  bottom: "conv2"
  top: "norm2"
  lrn_param {
    local_size: 5
    alpha: 0.0001
    beta: 0.75
  }
}
layer {
  name: "pool2"
  type: "Pooling"
  bottom: "norm2"
  top: "pool2"
  pooling_param {
    pool: MAX
    kernel_size: 3
    stride: 2
  }
}
layer {
  name: "conv3"
  type: "Convolution"
  bottom: "pool2"
  top: "conv3"
  param {
    lr_mult: 1
    decay_mult: 1
  }
  param {
    lr_mult: 2
    decay_mult: 0
  }
  convolution_param {
    num_output: 384
    pad: 1
    kernel_size: 3
    weight_filler {
      type: "gaussian"
      std: 0.01
    }
    bias_filler {
      type: "constant"
      value: 0
    }
  }
}
layer {
  name: "relu3"
  type: "ReLU"
  bottom: "conv3"
  top: "conv3"
}
layer {
  name: "conv4"
  type: "Convolution"
  bottom: "conv3"
  top: "conv4"
  param {
    lr_mult: 1
    decay_mult: 1
  }
  param {
    lr_mult: 2
    decay_mult: 0
  }
  convolution_param {
    num_output: 384
    pad: 1
    kernel_size: 3
    group: 2
    weight_filler {
      type: "gaussian"
      std: 0.01
    }
    bias_filler {
      type: "constant"
      value: 0.1
    }
  }
}
layer {
  name: "relu4"
  type: "ReLU"
  bottom: "conv4"
  top: "conv4"
}
layer {
  name: "conv5"
  type: "Convolution"
  bottom: "conv4"
  top: "conv5"
  param {
    lr_mult: 1
    decay_mult: 1
  }
  param {
    lr_mult: 2
    decay_mult: 0
  }
  convolution_param {
    num_output: 256
    pad: 1
    kernel_size: 3
    group: 2
    weight_filler {
      type: "gaussian"
      std: 0.01
    }
    bias_filler {
      type: "constant"
      value: 0.1
    }
  }
}
layer {
  name: "relu5"
  type: "ReLU"
  bottom: "conv5"
  top: "conv5"
}
layer {
  name: "pool5"
  type: "Pooling"
  bottom: "conv5"
  top: "pool5"
  pooling_param {
    pool: MAX
    kernel_size: 3
    stride: 2
  }
}
layer {
  name: "fc6"
  type: "InnerProduct"
  bottom: "pool5"
  top: "fc6"
  param {
    lr_mult: 1
    decay_mult: 1
  }
  param {
    lr_mult: 2
    decay_mult: 0
  }
  inner_product_param {
    num_output: 4096
    weight_filler {
      type: "gaussian"
      std: 0.005
    }
    bias_filler {
      type: "constant"
      value: 0.1
    }
  }
}
layer {
  name: "relu6"
  type: "ReLU"
  bottom: "fc6"
  top: "fc6"
}
layer {
  name: "drop6"
  type: "Dropout"
  bottom: "fc6"
  top: "fc6"
  dropout_param {
    dropout_ratio: 0.5
  }
}
layer {
  name: "fc7"
  type: "InnerProduct"
  bottom: "fc6"
  top: "fc7"
  param {
    lr_mult: 1
    decay_mult: 1
  }
  param {
    lr_mult: 2
    decay_mult: 0
  }
  inner_product_param {
    num_output: 4096
    weight_filler {
      type: "gaussian"
      std: 0.005
    }
    bias_filler {
      type: "constant"
      value: 0.1
    }
  }
}
layer {
  name: "relu7"
  type: "ReLU"
  bottom: "fc7"
  top: "fc7"
}
layer {
  name: "drop7"
  type: "Dropout"
  bottom: "fc7"
  top: "fc7"
  dropout_param {
    dropout_ratio: 0.5
  }
}
layer {
  name: "fc8"
  type: "InnerProduct"
  bottom: "fc7"
  top: "fc8"
  param {
    lr_mult: 1
    decay_mult: 1
  }
  param {
    lr_mult: 2
    decay_mult: 0
  }
  inner_product_param {
    num_output: 1000
    weight_filler {
      type: "gaussian"
      std: 0.01
    }
    bias_filler {
      type: "constant"
      value: 0
    }
  }
}
layer {
  name: "accuracy"
  type: "Accuracy"
  bottom: "fc8"
  bottom: "label"
  top: "accuracy"
  include {
    phase: TEST
  }
}
layer {
  name: "loss"
  type: "SoftmaxWithLoss"
  bottom: "fc8"
  bottom: "label"
  top: "loss"
}
I0515 15:44:30.416220 11106 layer_factory.hpp:77] Creating layer data
I0515 15:44:30.417052 11106 net.cpp:91] Creating Layer data
I0515 15:44:30.417070 11106 net.cpp:399] data -> data
I0515 15:44:30.417083 11106 net.cpp:399] data -> label
I0515 15:44:30.417094 11106 data_transformer.cpp:25] Loading mean file from: /home/intel/Downloads/caffe/data/ilsvrc12/imagenet_mean.binaryproto
I0515 15:44:30.417709 11120 db_lmdb.cpp:35] Opened lmdb /home/intel/Downloads/caffe/examples/imagenet/ilsvrc12_val_lmdb
I0515 15:44:30.418756 11106 data_layer.cpp:41] output data size: 50,3,227,227
I0515 15:44:30.428658 11106 net.cpp:141] Setting up data
I0515 15:44:30.428704 11106 net.cpp:148] Top shape: 50 3 227 227 (7729350)
I0515 15:44:30.428709 11106 net.cpp:148] Top shape: 50 (50)
I0515 15:44:30.428712 11106 net.cpp:156] Memory required for data: 30917600
I0515 15:44:30.428719 11106 layer_factory.hpp:77] Creating layer label_data_1_split
I0515 15:44:30.428735 11106 net.cpp:91] Creating Layer label_data_1_split
I0515 15:44:30.428740 11106 net.cpp:425] label_data_1_split <- label
I0515 15:44:30.428755 11106 net.cpp:399] label_data_1_split -> label_data_1_split_0
I0515 15:44:30.428766 11106 net.cpp:399] label_data_1_split -> label_data_1_split_1
I0515 15:44:30.428776 11106 net.cpp:141] Setting up label_data_1_split
I0515 15:44:30.428781 11106 net.cpp:148] Top shape: 50 (50)
I0515 15:44:30.428783 11106 net.cpp:148] Top shape: 50 (50)
I0515 15:44:30.428786 11106 net.cpp:156] Memory required for data: 30918000
I0515 15:44:30.428789 11106 layer_factory.hpp:77] Creating layer conv1
I0515 15:44:30.428802 11106 net.cpp:91] Creating Layer conv1
I0515 15:44:30.428804 11106 net.cpp:425] conv1 <- data
I0515 15:44:30.428809 11106 net.cpp:399] conv1 -> conv1
I0515 15:44:30.547556 11106 net.cpp:141] Setting up conv1
I0515 15:44:30.547597 11106 net.cpp:148] Top shape: 50 96 55 55 (14520000)
I0515 15:44:30.547616 11106 net.cpp:156] Memory required for data: 88998000
I0515 15:44:30.547634 11106 layer_factory.hpp:77] Creating layer relu1
I0515 15:44:30.547646 11106 net.cpp:91] Creating Layer relu1
I0515 15:44:30.547652 11106 net.cpp:425] relu1 <- conv1
I0515 15:44:30.547658 11106 net.cpp:386] relu1 -> conv1 (in-place)
I0515 15:44:30.547772 11106 net.cpp:141] Setting up relu1
I0515 15:44:30.547781 11106 net.cpp:148] Top shape: 50 96 55 55 (14520000)
I0515 15:44:30.547785 11106 net.cpp:156] Memory required for data: 147078000
I0515 15:44:30.547790 11106 layer_factory.hpp:77] Creating layer norm1
I0515 15:44:30.547799 11106 net.cpp:91] Creating Layer norm1
I0515 15:44:30.547803 11106 net.cpp:425] norm1 <- conv1
I0515 15:44:30.547808 11106 net.cpp:399] norm1 -> norm1
I0515 15:44:30.548131 11106 net.cpp:141] Setting up norm1
I0515 15:44:30.548142 11106 net.cpp:148] Top shape: 50 96 55 55 (14520000)
I0515 15:44:30.548146 11106 net.cpp:156] Memory required for data: 205158000
I0515 15:44:30.548156 11106 layer_factory.hpp:77] Creating layer pool1
I0515 15:44:30.548163 11106 net.cpp:91] Creating Layer pool1
I0515 15:44:30.548167 11106 net.cpp:425] pool1 <- norm1
I0515 15:44:30.548172 11106 net.cpp:399] pool1 -> pool1
I0515 15:44:30.548182 11106 net.cpp:141] Setting up pool1
I0515 15:44:30.548185 11106 net.cpp:148] Top shape: 50 96 27 27 (3499200)
I0515 15:44:30.548188 11106 net.cpp:156] Memory required for data: 219154800
I0515 15:44:30.548192 11106 layer_factory.hpp:77] Creating layer conv2
I0515 15:44:30.548202 11106 net.cpp:91] Creating Layer conv2
I0515 15:44:30.548207 11106 net.cpp:425] conv2 <- pool1
I0515 15:44:30.548212 11106 net.cpp:399] conv2 -> conv2
I0515 15:44:30.556231 11106 net.cpp:141] Setting up conv2
I0515 15:44:30.556251 11106 net.cpp:148] Top shape: 50 256 27 27 (9331200)
I0515 15:44:30.556254 11106 net.cpp:156] Memory required for data: 256479600
I0515 15:44:30.556264 11106 layer_factory.hpp:77] Creating layer relu2
I0515 15:44:30.556272 11106 net.cpp:91] Creating Layer relu2
I0515 15:44:30.556275 11106 net.cpp:425] relu2 <- conv2
I0515 15:44:30.556282 11106 net.cpp:386] relu2 -> conv2 (in-place)
I0515 15:44:30.556529 11106 net.cpp:141] Setting up relu2
I0515 15:44:30.556540 11106 net.cpp:148] Top shape: 50 256 27 27 (9331200)
I0515 15:44:30.556543 11106 net.cpp:156] Memory required for data: 293804400
I0515 15:44:30.556547 11106 layer_factory.hpp:77] Creating layer norm2
I0515 15:44:30.556556 11106 net.cpp:91] Creating Layer norm2
I0515 15:44:30.556560 11106 net.cpp:425] norm2 <- conv2
I0515 15:44:30.556565 11106 net.cpp:399] norm2 -> norm2
I0515 15:44:30.556656 11106 net.cpp:141] Setting up norm2
I0515 15:44:30.556664 11106 net.cpp:148] Top shape: 50 256 27 27 (9331200)
I0515 15:44:30.556668 11106 net.cpp:156] Memory required for data: 331129200
I0515 15:44:30.556671 11106 layer_factory.hpp:77] Creating layer pool2
I0515 15:44:30.556677 11106 net.cpp:91] Creating Layer pool2
I0515 15:44:30.556680 11106 net.cpp:425] pool2 <- norm2
I0515 15:44:30.556685 11106 net.cpp:399] pool2 -> pool2
I0515 15:44:30.556694 11106 net.cpp:141] Setting up pool2
I0515 15:44:30.556699 11106 net.cpp:148] Top shape: 50 256 13 13 (2163200)
I0515 15:44:30.556701 11106 net.cpp:156] Memory required for data: 339782000
I0515 15:44:30.556704 11106 layer_factory.hpp:77] Creating layer conv3
I0515 15:44:30.556713 11106 net.cpp:91] Creating Layer conv3
I0515 15:44:30.556717 11106 net.cpp:425] conv3 <- pool2
I0515 15:44:30.556722 11106 net.cpp:399] conv3 -> conv3
I0515 15:44:30.577332 11106 net.cpp:141] Setting up conv3
I0515 15:44:30.577366 11106 net.cpp:148] Top shape: 50 384 13 13 (3244800)
I0515 15:44:30.577373 11106 net.cpp:156] Memory required for data: 352761200
I0515 15:44:30.577384 11106 layer_factory.hpp:77] Creating layer relu3
I0515 15:44:30.577394 11106 net.cpp:91] Creating Layer relu3
I0515 15:44:30.577399 11106 net.cpp:425] relu3 <- conv3
I0515 15:44:30.577405 11106 net.cpp:386] relu3 -> conv3 (in-place)
I0515 15:44:30.577666 11106 net.cpp:141] Setting up relu3
I0515 15:44:30.577678 11106 net.cpp:148] Top shape: 50 384 13 13 (3244800)
I0515 15:44:30.577682 11106 net.cpp:156] Memory required for data: 365740400
I0515 15:44:30.577685 11106 layer_factory.hpp:77] Creating layer conv4
I0515 15:44:30.577697 11106 net.cpp:91] Creating Layer conv4
I0515 15:44:30.577702 11106 net.cpp:425] conv4 <- conv3
I0515 15:44:30.577708 11106 net.cpp:399] conv4 -> conv4
I0515 15:44:30.593654 11106 net.cpp:141] Setting up conv4
I0515 15:44:30.593677 11106 net.cpp:148] Top shape: 50 384 13 13 (3244800)
I0515 15:44:30.593683 11106 net.cpp:156] Memory required for data: 378719600
I0515 15:44:30.593689 11106 layer_factory.hpp:77] Creating layer relu4
I0515 15:44:30.593699 11106 net.cpp:91] Creating Layer relu4
I0515 15:44:30.593704 11106 net.cpp:425] relu4 <- conv4
I0515 15:44:30.593709 11106 net.cpp:386] relu4 -> conv4 (in-place)
I0515 15:44:30.593966 11106 net.cpp:141] Setting up relu4
I0515 15:44:30.593976 11106 net.cpp:148] Top shape: 50 384 13 13 (3244800)
I0515 15:44:30.593986 11106 net.cpp:156] Memory required for data: 391698800
I0515 15:44:30.593989 11106 layer_factory.hpp:77] Creating layer conv5
I0515 15:44:30.594000 11106 net.cpp:91] Creating Layer conv5
I0515 15:44:30.594003 11106 net.cpp:425] conv5 <- conv4
I0515 15:44:30.594010 11106 net.cpp:399] conv5 -> conv5
I0515 15:44:30.605171 11106 net.cpp:141] Setting up conv5
I0515 15:44:30.605185 11106 net.cpp:148] Top shape: 50 256 13 13 (2163200)
I0515 15:44:30.605190 11106 net.cpp:156] Memory required for data: 400351600
I0515 15:44:30.605199 11106 layer_factory.hpp:77] Creating layer relu5
I0515 15:44:30.605208 11106 net.cpp:91] Creating Layer relu5
I0515 15:44:30.605212 11106 net.cpp:425] relu5 <- conv5
I0515 15:44:30.605217 11106 net.cpp:386] relu5 -> conv5 (in-place)
I0515 15:44:30.605309 11106 net.cpp:141] Setting up relu5
I0515 15:44:30.605317 11106 net.cpp:148] Top shape: 50 256 13 13 (2163200)
I0515 15:44:30.605320 11106 net.cpp:156] Memory required for data: 409004400
I0515 15:44:30.605324 11106 layer_factory.hpp:77] Creating layer pool5
I0515 15:44:30.605332 11106 net.cpp:91] Creating Layer pool5
I0515 15:44:30.605336 11106 net.cpp:425] pool5 <- conv5
I0515 15:44:30.605340 11106 net.cpp:399] pool5 -> pool5
I0515 15:44:30.605350 11106 net.cpp:141] Setting up pool5
I0515 15:44:30.605355 11106 net.cpp:148] Top shape: 50 256 6 6 (460800)
I0515 15:44:30.605357 11106 net.cpp:156] Memory required for data: 410847600
I0515 15:44:30.605360 11106 layer_factory.hpp:77] Creating layer fc6
I0515 15:44:30.605367 11106 net.cpp:91] Creating Layer fc6
I0515 15:44:30.605370 11106 net.cpp:425] fc6 <- pool5
I0515 15:44:30.605376 11106 net.cpp:399] fc6 -> fc6
I0515 15:44:31.462913 11106 net.cpp:141] Setting up fc6
I0515 15:44:31.462959 11106 net.cpp:148] Top shape: 50 4096 (204800)
I0515 15:44:31.462978 11106 net.cpp:156] Memory required for data: 411666800
I0515 15:44:31.462991 11106 layer_factory.hpp:77] Creating layer relu6
I0515 15:44:31.463003 11106 net.cpp:91] Creating Layer relu6
I0515 15:44:31.463018 11106 net.cpp:425] relu6 <- fc6
I0515 15:44:31.463026 11106 net.cpp:386] relu6 -> fc6 (in-place)
I0515 15:44:31.463403 11106 net.cpp:141] Setting up relu6
I0515 15:44:31.463415 11106 net.cpp:148] Top shape: 50 4096 (204800)
I0515 15:44:31.463419 11106 net.cpp:156] Memory required for data: 412486000
I0515 15:44:31.463424 11106 layer_factory.hpp:77] Creating layer drop6
I0515 15:44:31.463431 11106 net.cpp:91] Creating Layer drop6
I0515 15:44:31.463434 11106 net.cpp:425] drop6 <- fc6
I0515 15:44:31.463440 11106 net.cpp:386] drop6 -> fc6 (in-place)
I0515 15:44:31.463449 11106 net.cpp:141] Setting up drop6
I0515 15:44:31.463452 11106 net.cpp:148] Top shape: 50 4096 (204800)
I0515 15:44:31.463455 11106 net.cpp:156] Memory required for data: 413305200
I0515 15:44:31.463459 11106 layer_factory.hpp:77] Creating layer fc7
I0515 15:44:31.463467 11106 net.cpp:91] Creating Layer fc7
I0515 15:44:31.463470 11106 net.cpp:425] fc7 <- fc6
I0515 15:44:31.463475 11106 net.cpp:399] fc7 -> fc7
I0515 15:44:31.844388 11106 net.cpp:141] Setting up fc7
I0515 15:44:31.844430 11106 net.cpp:148] Top shape: 50 4096 (204800)
I0515 15:44:31.844449 11106 net.cpp:156] Memory required for data: 414124400
I0515 15:44:31.844462 11106 layer_factory.hpp:77] Creating layer relu7
I0515 15:44:31.844473 11106 net.cpp:91] Creating Layer relu7
I0515 15:44:31.844488 11106 net.cpp:425] relu7 <- fc7
I0515 15:44:31.844496 11106 net.cpp:386] relu7 -> fc7 (in-place)
I0515 15:44:31.844661 11106 net.cpp:141] Setting up relu7
I0515 15:44:31.844671 11106 net.cpp:148] Top shape: 50 4096 (204800)
I0515 15:44:31.844674 11106 net.cpp:156] Memory required for data: 414943600
I0515 15:44:31.844678 11106 layer_factory.hpp:77] Creating layer drop7
I0515 15:44:31.844686 11106 net.cpp:91] Creating Layer drop7
I0515 15:44:31.844689 11106 net.cpp:425] drop7 <- fc7
I0515 15:44:31.844694 11106 net.cpp:386] drop7 -> fc7 (in-place)
I0515 15:44:31.844702 11106 net.cpp:141] Setting up drop7
I0515 15:44:31.844707 11106 net.cpp:148] Top shape: 50 4096 (204800)
I0515 15:44:31.844710 11106 net.cpp:156] Memory required for data: 415762800
I0515 15:44:31.844719 11106 layer_factory.hpp:77] Creating layer fc8
I0515 15:44:31.844727 11106 net.cpp:91] Creating Layer fc8
I0515 15:44:31.844730 11106 net.cpp:425] fc8 <- fc7
I0515 15:44:31.844746 11106 net.cpp:399] fc8 -> fc8
I0515 15:44:31.937682 11106 net.cpp:141] Setting up fc8
I0515 15:44:31.937719 11106 net.cpp:148] Top shape: 50 1000 (50000)
I0515 15:44:31.937724 11106 net.cpp:156] Memory required for data: 415962800
I0515 15:44:31.937744 11106 layer_factory.hpp:77] Creating layer fc8_fc8_0_split
I0515 15:44:31.937753 11106 net.cpp:91] Creating Layer fc8_fc8_0_split
I0515 15:44:31.937758 11106 net.cpp:425] fc8_fc8_0_split <- fc8
I0515 15:44:31.937765 11106 net.cpp:399] fc8_fc8_0_split -> fc8_fc8_0_split_0
I0515 15:44:31.937773 11106 net.cpp:399] fc8_fc8_0_split -> fc8_fc8_0_split_1
I0515 15:44:31.937782 11106 net.cpp:141] Setting up fc8_fc8_0_split
I0515 15:44:31.937786 11106 net.cpp:148] Top shape: 50 1000 (50000)
I0515 15:44:31.937789 11106 net.cpp:148] Top shape: 50 1000 (50000)
I0515 15:44:31.937793 11106 net.cpp:156] Memory required for data: 416362800
I0515 15:44:31.937796 11106 layer_factory.hpp:77] Creating layer accuracy
I0515 15:44:31.937808 11106 net.cpp:91] Creating Layer accuracy
I0515 15:44:31.937813 11106 net.cpp:425] accuracy <- fc8_fc8_0_split_0
I0515 15:44:31.937816 11106 net.cpp:425] accuracy <- label_data_1_split_0
I0515 15:44:31.937822 11106 net.cpp:399] accuracy -> accuracy
…
